cnn_params.pth (torch, 180260 bytes, 8 tensors)

conv_1.weight f4 [16, 1, 3, 3]
000000 18 01 b8 3e 9a 74 29 be 0b 91 b5 3e 4d 9f eb 3e
       0.35938334 -0.16548386 0.35462222 0.46019974
000010 d4 a2 e9 3e 7c c7 24 be 44 ca 44 3d 3c e6 ab be
       0.4563204 -0.16091722 0.048044458 -0.33574092
000020 a1 44 27 3d 6a bf c6 3e 66 79 5a 3d 07 90 d1 3e
       0.040836934 0.38817912 0.05333843 0.40930197
000030 57 23 43 3d 25 c2 cf 3e 75 4e 45 3f 5e 39 51 bc
       0.047641125 0.40577808 0.7707284 -0.012770025
000040 94 c3 6a be e5 5e a2 3e d9 c9 cc be 91 ca b0 3e
       -0.2292617 0.31713024 -0.39997748 0.34529546
000050 b1 b8 08 3d c5 a3 60 be bd 47 9e 3e 78 0a 1f 3d
       0.03337926 -0.21937473 0.30914107 0.038828343
000060 c0 5a 89 3e fd 38 e4 3e 22 e7 e3 3d 3b 1c e0 be
       0.2682705 0.4457473 0.111280695 -0.43771538
000070 e2 cf a0 3e 36 7b 5e 3d 7c 14 e6 bc 94 b6 d1 3d
       0.31408602 0.05431672 -0.02808594 0.10239902
000080 a4 4c 24 3f 84 6c 4c be 70 3f ec 3e 75 c9 80 3e
       0.64179444 -0.1996327 0.4614215 0.251537
000090 c3 bc db bc 3e 78 92 be 3c df eb 3d 85 b2 31 3d
       -0.026823407 -0.28607363 0.11517188 0.04338314
0000a0 e0 22 ba bc 2c 1b 8d 3e 73 1d 82 bd 39 49 2e bc
       -0.022721708 0.27559793 -0.06353273 -0.010637575
0000b0 d4 21 8f be 74 0d d0 be 82 e7 90 be 1a 9e d5 3e
       -0.27955496 -0.40635264 -0.28301626 0.41722184
0000c0 00 40 81 3e bc 32 09 3f 81 96 8f 3e 18 9c 94 3e
       0.2524414 0.5359304 0.28044513 0.2902534
0000d0 df 52 17 be 14 c4 03 be 9b d5 00 3e 01 b1 1e be
       -0.14777707 -0.12867767 0.12581484 -0.15497209
0000e0 6c cb cb be 94 02 f4 3e 08 b1 c7 bd 66 4f bd 3e
       -0.39803636 0.47658217 -0.09750563 0.3697464
0000f0 77 1f ac 3e bc 01 aa bd 17 36 e3 3e dd 8a b7 be
       0.33617756 -0.08301112 0.44377205 -0.35848132
000100 d3 5b a5 be 78 d7 0d 3c a6 16 e6 3a ff c3 a9 3e
       -0.3229662 0.008657329 0.0017554357 0.33157346
000110 1c 0d e2 3d 68 86 4c 3f c3 87 15 3f 6c 9c 15 3f
       0.11037657 0.7989259 0.5841028 0.58441806
000120 ce b2 1f 3f 30 ea bd be 9b 3a 50 bf ad e0 1f 3f
       0.6238221 -0.37092733 -0.81339425 0.62452203
000130 66 4b 9e 3d 21 6b 52 be 11 d9 0e 3f 24 dd 36 3f
       0.07729225 -0.20548679 0.5579997 0.71431184
000140 e0 64 dd 3d 34 e5 a1 3e 60 56 00 3f 41 e5 86 be
       0.10810256 0.3162018 0.501318 -0.26346782
000150 e2 6b b6 3d e1 a4 5c 3f b1 9e 98 3e 1f ec 8c 3d
       0.08907296 0.86189085 0.29808572 0.06880974
000160 bc bb 39 3f 5e 13 c5 3e ce 60 6b 3e 41 de b9 3d
       0.72552085 0.38491338 0.22986147 0.09075595
000170 68 ce b4 be fd 7d 16 bd ed 4c 64 bd 46 f9 2a 3d
       -0.35313725 -0.036741246 -0.055737425 0.041741632
000180 02 c7 c4 be 7a 0d da 3d 9a 12 0b be 3f 3b 95 be
       -0.3843308 0.10647102 -0.13581315 -0.29146764
000190 7c 1e 13 bd aa f9 f2 3d 1e f7 15 bc 7b ad ec bd
       -0.035917744 0.11864026 -0.009153156 -0.11556526
0001a0 77 ad 74 bd c3 f7 a4 be 61 1b 46 3e 0c bc 9e bb
       -0.05973574 -0.32220277 0.19346382 -0.0048441943
0001b0 d0 5c 05 bf 54 4b 63 3c de e5 2f 3f 26 a5 14 bf
       -0.52094746 0.01387294 0.68710124 -0.58064497
0001c0 e8 06 ec 3e a5 28 85 3e c0 27 56 be bf e1 fd 3e
       0.4609902 0.26007572 -0.20913601 0.49586293
0001d0 70 87 c4 3e 95 46 9a be a1 b6 e1 be d5 59 45 be
       0.3838458 -0.30131975 -0.44084647 -0.1927255
0001e0 dd a1 6f be 42 5f d3 bd bb f3 8d be ca da 13 be
       -0.2340159 -0.10320903 -0.27725014 -0.1443893
0001f0 9e 6e 39 3e 60 2b fb 3e 8c a3 21 3f 32 fb 45 3f
       0.18108603 0.4905653 0.6314018 0.7733642
000200 8d 04 76 3e f0 49 de 3d fc e9 30 3f b0 98 33 3e
       0.24025173 0.10853946 0.6910703 0.17538714
000210 d3 18 6d 3e d9 27 4f bd 34 eb dd bd 9b 11 cf bd
       0.23154001 -0.05057511 -0.10835877 -0.1011078
000220 00 2d ba bb 2b 2d 3a 3d 2b ec 9b bc f0 05 de bd
       -0.005681634 0.04545323 -0.019033512 -0.10840976
000230 b3 e6 1c be a6 a6 b0 bd 9c 13 8b be 16 f4 8e bd
       -0.1532238 -0.08625536 -0.27163398 -0.069801494

conv_1.bias f4 [16]
000000 82 4f 6e bd f9 94 c0 bd 70 b5 b9 bd 97 28 0e 3a
       -0.058181293 -0.09403414 -0.090678096 0.00054229185
000010 db 39 48 be 1b 6e e6 bd 10 ef 26 be 08 dd 3c bb
       -0.1955332 -0.1125147 -0.16302133 -0.0028818268
000020 1d 8b a5 bd a8 a9 82 be 4e 43 f3 3e 36 81 a0 bd
       -0.080831744 -0.25520062 0.47512287 -0.07837145
000030 91 f4 a6 bd ca fb 71 3f 8b 54 96 bc e0 1a 91 be
       -0.08152116 0.94524825 -0.01835086 -0.28340816

conv_2.weight f4 [32, 16, 3, 3]
000000 b4 32 a1 3c c7 77 05 3e f4 7d be bd 99 f7 4d bc
       0.019677497 0.13033973 -0.093013674 -0.012571239
000010 5a 32 c7 bb ec e1 13 be ac 7d 89 3d 61 dd de bd
       -0.0060790004 -0.14441651 0.06713423 -0.108820684
000020 05 c1 a2 bd ae 31 01 3e b4 d1 25 bd 92 31 17 be
       -0.07946972 0.12616608 -0.04048319 -0.14765003
000030 09 e5 bf 3c db 9f 02 bc 9d 53 0d be 27 e8 33 bd
       0.023424642 -0.007972683 -0.13801427 -0.04392257
000040 6f c8 53 bd 73 88 05 3d 70 41 45 3e 75 5d 21 3c
       -0.05170482 0.03260083 0.19263244 0.009848942
000050 cb e7 0c be d2 a0 1c 3e 9b 18 07 3c 1a 90 6a 3d
       -0.13760297 0.15295723 0.0082456125 0.057266332
000060 e8 0d 8f bd 73 55 10 3d 93 6d 81 3d 99 aa 50 3e
       -0.06985074 0.03523774 0.06319728 0.20377578
000070 73 6d 33 bd 91 e4 21 be 1d c3 0c 3e 55 f2 b2 bd
       -0.04380555 -0.15809847 0.13746305 -0.087376274
000080 49 63 e8 bd 7d be cf bd e5 25 da bb 4d bc 8b bc
       -0.11347062 -0.10143755 -0.0066573494 -0.017057562
000090 28 26 3f 3d de 9c 80 3b a3 b0 d1 3c 2b 02 80 3d
       0.046667248 0.00392495 0.025596922 0.062504135
0000a0 a6 2d 8f 3d 2e c1 c7 bc e4 ff 8c 3d ea cd a0 bd
       0.069911286 -0.024384107 0.06884745 -0.07851775
0000b0 f3 95 31 3d 2a 04 27 3e 43 eb 0a 3c 34 65 0e 3b
       0.043355893 0.16310182 0.008478942 0.0021727802
0000c0 6c 48 56 3d 05 c1 a6 bd 87 d8 bd bd 59 dc 1c bd
       0.05231516 -0.08142284 -0.09269815 -0.038296077
0000d0 ea b8 2c bc 74 2c 64 3d 48 bf e5 bd e7 cf a1 bd
       -0.010542134 0.055706456 -0.11218125 -0.07900982
0000e0 97 54 a4 bd 03 2e 7f bc a1 2d 9e bd 3e 94 e6 bd
       -0.08023947 -0.015574935 -0.07723547 -0.11258744
0000f0 87 4f 84 bb f8 49 90 bd f6 15 a9 bd a0 2e 02 3e
       -0.0040378007 -0.070453584 -0.08256142 0.12713099
000100 69 2d 48 3c f6 70 38 be ba 25 1a 3e 7c 16 2a bd
       0.012217858 -0.18011841 0.15053454 -0.04152535
000110 9f bf 51 bc 9b 56 4e be 3e db f4 bd 59 d0 83 3c
       -0.012802034 -0.20150225 -0.1195588 0.016090559
000120 36 f8 94 bd db ce 2c 3c 30 1e f3 bc e9 64 75 3d
       -0.07273905 0.010547365 -0.02967748 0.05991069
000130 da 1d 42 3c 1f 8d 95 39 5a 04 24 bd bb d6 c0 bd
       0.0118479375 0.00028524638 -0.040043212 -0.094159566
000140 e6 76 b3 bd 8d 18 8b 3c 5e 47 91 3d 85 4c 00 be
       -0.087629125 0.01697948 0.0709369 -0.1252919
000150 e3 cb 08 3e 74 1e e5 bd db 8a 31 bd 0c d8 e0 bd
       0.13359027 -0.11187449 -0.043345314 -0.10978708
000160 d8 76 42 be 69 95 d9 bd f1 b4 b9 3b d7 c4 82 bd
       -0.18990648 -0.10624201 0.005667322 -0.063852005
000170 ea 7b 0b bd b0 f8 ad 3d 4c 86 34 bd e2 68 fb bc
       -0.03405372 0.08494699 -0.044073388 -0.03068966
000180 f4 19 de 3d b5 52 97 bd c3 31 68 3d 71 fc 0a 3d
       0.10844794 -0.07388822 0.05668808 0.033932153
000190 bb 2d a1 bd 00 ce ce 3c 57 3e f2 bc 97 7d a9 bd
       -0.078700505 0.025244713 -0.029570742 -0.082759075
0001a0 af 38 9b bc 82 c3 6d 3b ca f5 3b bd 51 b8 33 bd
       -0.018947927 0.0036279862 -0.0458887 -0.04387695
0001b0 0b a6 7d 3e bf ef 93 3c 97 48 07 3a ec 45 23 3e
       0.24770372 0.018058656 0.0005160658 0.15944642
0001c0 52 66 d9 bd ed 5b 03 bd a1 fa e9 bd 84 9f 83 3c
       -0.10615219 -0.03207009 -0.11424757 0.016067274
0001d0 b8 b7 33 3d 76 dd 4b bc c9 bd 28 3c 06 de 01 bd
       0.04387638 -0.012442937 0.010299155 -0.03170588
0001e0 a0 ae ed bd 78 3d 06 bd d1 89 4d 3c 1c cb e2 3c
       -0.11605573 -0.032773465 0.012545065 0.02768474
0001f0 cf 76 a7 3d ab 80 92 3d cc 93 3e bd 44 db 61 3e
       0.08176958 0.07153448 -0.04652767 0.220563
000200 b6 65 10 bc 62 ab 2c 3e fb 16 8d bd 01 2a 11 be
       -0.008813312 0.16862252 -0.06889149 -0.1417618
000210 09 00 10 3e 73 a6 fa bd 57 f9 09 be 4b 09 23 bc
       0.14062513 -0.12238779 -0.13474022 -0.009950946
000220 a0 e0 2e bc 00 ff 94 bc 2b f4 68 bd 6e 9d 57 3d
       -0.010673672 -0.018188 -0.05687348 0.05264037
000230 ce c7 97 bd 1b 67 f5 3c 8e 0b 82 bd 16 b8 e0 bc
       -0.074111566 0.029956391 -0.0634986 -0.027431529
000240 ba 49 88 bd 8c 0c 63 3d 3d 4d 82 3d 29 ba b7 bd
       -0.06654687 0.055431888 0.06362388 -0.08971054
000250 2c 70 95 bd 21 a0 93 bd 25 0d 12 bc 1c 00 be 3d
       -0.07296786 -0.072082765 -0.008914267 0.092773646
000260 3c 14 df bb a7 11 2d 3c 31 a5 a8 bc 31 ea c2 3c
       -0.006807832 0.010563291 -0.020586582 0.023793312
000270 a0 50 07 be dc ab 92 bd d1 f3 cb 3d 61 d4 a9 3d
       -0.1321435 -0.07161686 0.09958614 0.08292461
000280 49 43 c6 3d 5a c7 1a 3d 7d 94 e6 bd f0 8f 01 3d
       0.096808024 0.037787773 -0.11258791 0.03163141
000290 30 aa 32 bc 13 fa 98 bd a8 cc ea bc 58 0b 84 3a
       -0.010904834 -0.07469573 -0.02866204 0.0010074181
0002a0 24 bf 92 3d c2 4e ee bc 52 a8 43 3d 2e 60 84 bd
       0.071653634 -0.029090289 0.047767945 -0.06463657
0002b0 b8 52 42 3d 25 99 ae 3d 9f fd b5 bd fd 16 67 bc
       0.047442168 0.08525304 -0.08886265 -0.014104602
0002c0 7f 37 6c 3d 40 c6 63 bc 8e ab dd ba 48 6d 47 3d
       0.057670113 -0.013902247 -0.0016912089 0.048688203
0002d0 b3 db 87 bd 7a 09 59 3d b6 75 82 bd 58 61 b3 3c
       -0.06633701 0.052987553 -0.06370108 0.021897003
0002e0 5d cf a0 3d 3b ba 81 3d 88 c1 4a 3c a5 df 05 bd
       0.078520514 0.06334349 0.012375243 -0.032683987
0002f0 e1 87 be bc e5 5e 82 bd c2 01 62 bd 2d a2 85 3d
       -0.023258151 -0.06365756 -0.055177458 0.06525073
000300 59 ef c7 bb e0 bd 87 3d 88 c8 f2 3d 7b c3 07 3e
       -0.0061015305 0.06628013 0.118546546 0.13258164
000310 1f 11 fb 3d 97 9e 32 bd 29 24 09 3b 39 40 68 3b
       0.12259125 -0.043608274 0.0020926094 0.003543867
000320 e0 9c c5 bc 2f 92 c1 3c fa cd 18 3c 46 90 de bc
       -0.024122655 0.023629276 0.009326452 -0.027168404
000330 2f 84 83 3d 5b 2a ce 3b 61 93 99 3c d5 63 8e bc
       0.064216964 0.0062916703 0.018747034 -0.017381588
000340 49 5c 70 3d 74 4a e1 3d 22 91 bf bd d3 0c 35 3d
       0.05868176 0.11000529 -0.09353854 0.044201683
000350 48 75 c5 bc 09 1d d9 3d bc 60 17 3d 44 12 c1 3c
       -0.024103776 0.10601241 0.036957487 0.02356828
000360 cc 46 7a 3d 3c 40 5e bd 0d 10 e8 bd 74 cf a9 3b
       0.061102673 -0.054260477 -0.113311864 0.005182201
000370 2e b6 a3 bd 83 b4 b4 bd 85 1f c1 3d c2 d2 2b 3d
       -0.079937324 -0.088234924 0.0942984 0.04194904
000380 68 6c 68 bc c4 2f 0b be fe 83 e4 bc 9f 6c 00 bd
       -0.014186002 -0.1359244 -0.02789497 -0.03135359
000390 e9 0e e3 bd f7 df 6f 3c d0 31 a5 bb 52 64 bb 3d
       -0.11086828 0.0146408 -0.0050413385 0.09149994
0003a0 67 b4 c0 3d de 42 c7 3d 9a 6d 2a bd 7a 7c da bd
       0.09409409 0.09729551 -0.04160843 -0.10668273
0003b0 91 e1 e4 bd 22 a4 a5 bd 72 58 44 bd 63 73 0f be
       -0.11175836 -0.080879465 -0.04793591 -0.1400886
0003c0 f3 5f 98 bb 0c b4 90 bd 2c 6a b4 bc ee 58 07 bd
       -0.00465011 -0.07065591 -0.022023283 -0.033043794
0003d0 c0 b5 26 bb ac b0 21 bd 4d 32 00 3d ca f0 37 3d
       -0.0025437921 -0.039475128 0.03129797 0.04490737
0003e0 27 d2 47 3d d5 41 3e bd d8 99 9d bd e2 b0 f4 bc
       0.0487844 -0.0464495 -0.07695359 -0.0298695
0003f0 64 ae 0b bd cc 26 c3 bd 2f 78 b3 3d 2c 6e db bd
       -0.03410186 -0.09528884 0.087631576 -0.10714373

conv_2.bias f4 [32]
000000 b9 36 d2 3c cd cb d4 bd d7 ef 3e be 88 8d 9a ba
       0.02566086 -0.103904344 -0.18646179 -0.0011791447
000010 3b ea db 3b 0a 51 45 3c a0 59 24 be 0f 17 cb ba
       0.006711272 0.012043247 -0.16049814 -0.0015494543
000020 5a 5e 08 be 02 f4 a9 bd 64 51 26 bd 8c e1 f0 bd
       -0.13317242 -0.08298494 -0.040604964 -0.1176177
000030 a7 dd 41 bd 28 13 e3 bd 93 84 d0 bd d9 3f be bc
       -0.047330525 -0.11087638 -0.101815365 -0.023223804
000040 de b6 8e bd 20 b0 7e bd 00 27 57 bd 53 93 76 be
       -0.06968473 -0.062179685 -0.052527428 -0.24079637
000050 95 42 5d bc c4 d7 c1 bd 19 57 02 be 37 37 d6 bd
       -0.013504644 -0.09464982 -0.12728538 -0.1045975
000060 99 9d e6 bd f1 f5 86 bd c3 6c 24 bd 00 e3 2c be
       -0.11260528 -0.06589878 -0.040142786 -0.16883469
000070 2f 72 ee bd fc 95 bb 3c 98 0a 1e bd 96 28 11 be
       -0.116428725 0.022898667 -0.03858432 -0.14175639

fc_1.weight f4 [25, 1568]
000000 14 07 30 bc 86 f5 ea bb 4a 49 b5 bb 57 d2 1d bb
       -0.010743875 -0.007170382 -0.0055324184 -0.002408167
000010 44 eb 59 3c 00 e3 19 bc 15 74 cd 3c 0c 5e d3 3c
       0.013300721 -0.0093925 0.025079766 0.025801681
000020 cc 0d 9c 3a 5f ff df 3c 2d 53 ce ba af 93 2c 3b
       0.0011905967 0.02734345 -0.0015741341 0.0026333143
000030 e7 14 29 3d 6a 4a dc ba 81 c7 bb 3c d5 a7 28 ba
       0.0412797 -0.0016806845 0.02292228 -0.00064337003
000040 20 aa af 3b e7 12 16 3d 34 e6 b6 bc c9 12 77 3c
       0.0053608567 0.03663912 -0.022326566 0.015080162
000050 0c e8 a1 3c af 2f f7 bb c7 75 23 bc 3f ce 5f bd
       0.019763969 -0.007543526 -0.009976811 -0.05464005
000060 a7 b2 8f bc 2a 10 fd 3d e9 22 16 bc bd d4 8a 3c
       -0.017541243 0.12356599 -0.009163597 0.016947145
000070 57 41 7b 3c ae 3b eb 3c eb 31 9a 3c 49 a3 bb 3d
       0.015335402 0.02871498 0.01882263 0.091620035
000080 a0 28 ec bc ab 26 dc bd 41 d4 21 3b 70 2d 73 bc
       -0.028827965 -0.10749563 0.0024693164 -0.014842376
000090 56 da f4 3b 59 28 81 3d 2b 4f 43 bc 30 53 de bd
       0.0074723167 0.06306524 -0.011920731 -0.108557105
0000a0 c5 d2 6e bc 9c 34 da 3c fd 33 b0 bc 1c e6 28 bc
       -0.014576619 0.026636414 -0.021509165 -0.010308769
0000b0 cc 1d 00 3d 86 95 de bc a5 1c b7 bb 1c b8 b9 3b
       0.031278417 -0.027170908 -0.0055881315 0.0056676995
0000c0 4a 54 82 3c ac 94 8d bc 7d a2 4a bc 6a 97 e9 ba
       0.015909333 -0.017282806 -0.012367842 -0.0017821614
0000d0 7a 6c b5 3b b5 07 50 3d 60 26 a6 3b c0 fe dc b9
       0.005536613 0.0507886 0.0050704926 -0.00042151473
0000e0 b8 06 c7 bc bd 74 8e bd e6 47 d2 bc 2f cf 69 bc
       -0.024295196 -0.0695586 -0.02566905 -0.014270588
0000f0 c7 bf a6 bc 7a 3e 40 bd 1a 0e 73 bc e9 e6 8d bb
       -0.020355118 -0.046934582 -0.014834905 -0.004330505
000100 10 a0 09 3c 9f ca e9 38 25 8d 1e bb e8 ed de 3c
       0.008399978 0.00011148047 -0.0024193015 0.027213052
000110 d3 fd 11 bd 89 d3 d3 3b 1a 24 e7 3c a6 fc 65 3d
       -0.035642456 0.006464426 0.028215457 0.056149147
000120 e8 a5 0e 3d 08 16 94 3d 79 04 55 3d 57 a0 3d 3c
       0.03482619 0.072307646 0.05200622 0.0115738725
000130 25 8d 12 3d 6a 3c 22 bb c0 c1 39 3d cc a5 1a 3d
       0.035779137 -0.0024755248 0.04535079 0.037755772
000140 1b 6f f6 bc eb 37 63 bd a5 03 8c 3d 46 41 a1 3c
       -0.030082276 -0.05547325 0.06836633 0.019684445
000150 84 71 d6 3b e7 e2 33 3b 5e aa 88 3c 3d a8 38 bd
       0.006544294 0.0027448477 0.0166828 -0.04508232
000160 5f 26 da bc 01 2a ee 3b a3 31 b6 3c 9a 85 85 3a
       -0.026629625 0.007268191 0.022240466 0.0010186911
000170 5a 01 23 3b fc ac a7 3c 66 10 ad 3b ee 81 1a bc
       0.0024872632 0.020468228 0.005281496 -0.009430392
000180 3f 71 cd 3c 51 0a 84 3a 1a 99 2c bb e9 31 4d bc
       0.025078414 0.0010073875 -0.0026336373 -0.012524107
000190 6b ee 3e 3d 33 59 1b 3d 74 85 3c 3d 07 d5 af b9
       0.04661409 0.037926864 0.04602571 -0.0003353732
0001a0 9d 81 69 3c 60 04 88 bb ba cb 20 bd 0b 06 7d bc
       0.014252094 -0.004150912 -0.03925679 -0.015443335
0001b0 99 1d e6 3c be 20 0d bd 07 28 cc bb fe 89 1d bc
       0.028090285 -0.034455054 -0.0062303576 -0.009615419
0001c0 7f d8 7c 3c 42 6d a8 bc fa c5 36 bd 34 7a 5d bb
       0.015432476 -0.02055991 -0.0446224 -0.0033794763
0001d0 50 16 19 bc 62 3b 1f bd e0 3a c0 bc 7b a6 75 3b
       -0.009343699 -0.03887499 -0.023465574 0.0037483263
0001e0 29 65 0d bb ed 23 98 3c 37 ca d6 3b a3 16 80 bd
       -0.0021575189 0.018571818 0.0065548676 -0.062543176
0001f0 7b b8 58 bd 21 5d 40 3c c3 4a 66 3c e6 00 d0 b8
       -0.05291031 0.011740954 0.0140559105 -9.91838e-05
000200 95 bc 11 3d 7c 93 ee 3c 32 4e 0c 3d 2c 13 fd 3b
       0.035580236 0.02912306 0.03425426 0.0077232327
000210 32 73 de 3c 06 04 ec 39 96 5c b5 bb b2 b1 85 bd
       0.027154539 0.00045016425 -0.0055347187 -0.06528033
000220 88 aa 7f 3c fc c6 2e 3d 5b ff 37 3d 88 3b 7c 3c
       0.015604623 0.042670235 0.04492126 0.015395053
000230 aa ae ec 3b 82 60 77 3c bd af 1a bd 5c b8 6f 3b
       0.00722297 0.015098693 -0.037765253 0.0036578393
000240 5e 92 14 bb 3e cb bf 3b a4 8a c4 3c 7c 16 a2 3c
       -0.002267025 0.005853086 0.02399189 0.019786112
000250 e9 44 25 bd 06 aa 48 bc 8e 0b 0c 3d 75 e3 13 3d
       -0.04034892 -0.012247568 0.034190707 0.03610559
000260 5a f1 9c 3d 0d b4 f8 3b c0 e4 82 3c 81 67 ef bc
       0.07663222 0.007589823 0.015978217 -0.02922416
000270 05 e4 bb bd be d3 79 bd 3b 02 92 bd 8d 3b 11 bd
       -0.09174351 -0.06099295 -0.07129332 -0.035457183
000280 9f eb 4b bb c9 32 b1 bc 85 d5 8c bc 7b 46 eb bc
       -0.0031115783 -0.021630662 -0.017191658 -0.028720131
000290 0d 16 05 bd 13 d9 4f bd 1e 42 aa 3b b3 55 86 bc
       -0.032491732 -0.050744127 0.00519587 -0.016398286
0002a0 24 dc f3 ba b5 a7 18 bb 9d e8 a4 bc 6e 42 66 bc
       -0.0018605036 -0.002329332 -0.02013045 -0.014053924
0002b0 c3 ed db bd 92 54 cc bd eb 4b ae 3b b5 35 87 3b
       -0.10738709 -0.09977068 0.0053191087 0.0041262754
0002c0 80 84 05 bd 11 6f a5 bd b0 e4 10 bd fe e5 82 bc
       -0.032597065 -0.08077825 -0.035374343 -0.01597881
0002d0 7c 9c 2e bc 05 40 03 3d c6 ea 8b bb 98 b7 99 bb
       -0.010657426 0.032043476 -0.0042699305 -0.0046910755
0002e0 fe 4e 55 bc e6 ae db bc 6d b5 6c 3d a7 59 56 3d
       -0.0130193215 -0.026816797 0.05779021 0.052331593
0002f0 77 f6 d5 3c 18 74 1c bc 76 9e 88 bb d5 1e d2 bc
       0.0261185 -0.009549163 -0.0041692806 -0.025649467
000300 df 66 92 3c b0 a9 8f bc 45 7b de 3a 1d 59 35 bc
       0.017871318 -0.017536968 0.0016973993 -0.01106861
000310 5e 40 8a 3c 4e d0 6d bb 60 38 43 3c 0e a5 a6 3c
       0.016876396 -0.003628749 0.011915296 0.020342376
000320 89 53 a9 3c 3c 5c 00 bc cb b6 22 bc 87 43 49 bb
       0.020669715 -0.00783449 -0.009931277 -0.0030710415
000330 83 ee c3 3a 95 02 a5 3b 41 bc dc bb 5c 9d 48 3c
       0.0014948401 0.005035708 -0.006736309 0.012244549
000340 23 bb 1d 3c d4 d8 c6 bc fc c3 be bc dc 45 c7 bc
       0.009627136 -0.024273314 -0.023286812 -0.024325304
000350 b7 f5 44 bc 61 69 8f bb 9e 9d 76 3c 73 f2 5b 3c
       -0.012021474 -0.004376576 0.015052227 0.013424504
000360 80 e4 28 3c 40 c0 65 bc 7f 9b e1 bb 33 98 95 3c
       0.010308385 -0.014022887 -0.0068849917 0.01826105
000370 ed 3d 31 bb 7f e4 98 3b 1c 35 13 bc 2e 47 42 bc
       -0.0027044967 0.0046659107 -0.00898483 -0.011857791
000380 77 cd 2a 3c c7 c5 2c bd 43 b4 24 bd 13 d3 32 bc
       0.010424963 -0.042180803 -0.040210973 -0.010914582
000390 42 b8 1e bd 44 60 b0 3c da f2 08 3c a2 72 b7 bc
       -0.03874994 0.021530278 0.008358682 -0.022393528
0003a0 ab 03 05 3c e0 fe 83 3a c4 ed 05 bc 70 aa b1 3c
       0.00811855 0.0010070466 -0.0081743635 0.021687716
0003b0 21 a1 2e 3d 31 87 60 bb 4c d6 41 3b f8 e3 c3 3c
       0.042634133 -0.0034260268 0.0029577194 0.023912415
0003c0 50 f8 08 bd 19 cc e2 bb 24 70 d9 3c 08 1d 03 3d
       -0.033439934 -0.006921303 0.02654273 0.03201011
0003d0 8f 16 85 bc 92 30 0f bc 64 c5 4f 3c 1b cb 32 bb
       -0.016246108 -0.008739607 0.012681339 -0.0027281705
0003e0 2c 86 15 3d 1a f9 0f 3d 2e 8f cc 3c c8 57 cf 3c
       0.03650491 0.03514967 0.024970617 0.025310412
0003f0 c8 ce 49 bc 90 52 1a 3b 53 31 84 3c bc 51 a4 3d
       -0.012317367 0.0023547746 0.0161368 0.08023402

fc_1.bias f4 [25]
000000 7b 00 d0 3c 3a 22 c2 3c f6 83 63 bc 4a 86 ba 3c
       0.025390854 0.023697961 -0.013886442 0.022769112
000010 30 59 bd bc 39 45 81 3c 2f 09 a4 3c 21 1d a2 3c
       -0.023113817 0.015780078 0.02002391 0.01978928
000020 ca 7c 6d 3b 3b 70 eb 3c 80 49 81 bb 4e db 16 3c
       0.003623771 0.02874004 -0.0039455295 0.00920756
000030 99 aa b2 3c 68 2a 55 3c b4 bd ce bc 36 6d 0e 3d
       0.021809863 0.013010599 -0.025236942 0.03477212
000040 cb b2 85 bb f1 29 72 3b 1c 88 f8 bb f2 83 0c 3d
       -0.0040801517 0.0036951269 -0.007584585 0.03430552
000050 fb a4 a6 3c fd 43 c6 3c fa c3 51 3d 08 7e 38 3c
       0.02034234 0.024202341 0.05121229 0.011260517
000060 c5 28 ff 3c
       0.03114737

fc_2.weight f4 [10, 25]
000000 84 66 87 be 28 7d cc bd e0 6f 99 3d a0 df 57 be
       -0.264454 -0.09984809 0.074920416 -0.210814
000010 41 9b 26 3e c9 8a 0e be 44 b1 62 3d 53 3b d4 3d
       0.16270162 -0.1392013 0.055344835 0.10362878
000020 8f ac 27 3e 30 17 73 3f ea 63 f9 be 3b 5e 84 3d
       0.1637442 0.94957256 -0.4870904 0.064632855
000030 a1 29 f6 be 00 57 0d be 96 62 17 bd 44 57 eb 3c
       -0.48078635 -0.13802719 -0.036959253 0.028728135
000040 86 23 8f 3e 9a 15 84 be 63 86 b1 3d af 58 a7 bd
       0.2795679 -0.2579773 0.0866821 -0.08171212
000050 3c 85 12 bf 8a 92 b5 3e 7b c9 fb 3e 14 59 12 be
       -0.5723455 0.35463363 0.49177155 -0.14291793
000060 0f d2 a5 be bd 59 10 3f 5c c6 b4 bd cb 04 66 3e
       -0.32386824 0.5638693 -0.088268965 0.22462766
000070 33 7d 18 be 62 35 05 3d 73 14 89 be 94 fd e6 3d
       -0.1489151 0.032521613 -0.26773414 0.11278835
000080 7c 96 d0 3e 0f 3e ba 3d 47 77 ac be 0a 76 32 3e
       0.4073981 0.09093868 -0.3368475 0.17427841
000090 5d 09 ea 3d 0f ce 3b 3f e4 a9 d6 bd 2f 45 9c 3a
       0.11427567 0.73361295 -0.10481623 0.0011922474
0000a0 6f 12 f3 be 59 8c 4e 3e a3 7e ce be 67 e6 86 bd
       -0.47475 0.20170726 -0.4033099 -0.065869145
0000b0 4c 63 2b 3d fc ab 9a be 7d d7 ac be 12 6e 27 be
       0.041842744 -0.3020934 -0.33758155 -0.16350582
0000c0 54 18 aa be fd bb da 3e 71 8f c9 3e fc 7e ac 3e
       -0.33221686 0.4272155 0.3936725 0.3369063
0000d0 ec 84 12 bf 63 64 0a bf 72 28 15 3e 52 52 f6 3e
       -0.5723407 -0.5405943 0.1456621 0.4810968
0000e0 7d ff e5 3d 67 53 e6 be 42 92 bf bd c0 18 b0 bd
       0.11230371 -0.44985506 -0.09354068 -0.08598471
0000f0 3e bd cc be 27 ba 53 3f bd 42 f0 be 1f 30 19 3e
       -0.3998813 0.8270592 -0.46925917 0.14959763
000100 e1 d3 13 be cf d1 70 be e8 2b 88 be cd 83 34 bf
       -0.14436294 -0.23517536 -0.26595998 -0.7051361
000110 1e 87 cf 3d 43 b1 36 3e b9 22 fd bc 41 56 0d 3f
       0.101331934 0.17841057 -0.030900346 0.5520974
000120 56 cc 1e 3e fa 38 22 3e 1f 4e ef 3e a2 0d e0 be
       0.15507635 0.15842047 0.4673929 -0.437604
000130 22 6d a6 3e e8 32 36 3e c1 3d 85 be 42 69 bd 3c
       0.32505137 0.17792857 -0.26023677 0.02312148
000140 48 cd 2f 3f 66 23 df 3d b6 b8 82 be 4e 30 f5 3c
       0.6867261 0.108954236 -0.25531548 0.02993026
000150 10 93 a4 be d6 4f b0 be 62 0d c9 3c 21 41 10 3f
       -0.3214345 -0.3443591 0.024542514 0.5634938
000160 14 4e 20 3e a9 3c 56 be 2f 71 32 3e 69 00 a5 be
       0.15654784 -0.20921578 0.17425989 -0.32226875
000170 c9 7f f4 be bf 04 34 bc c5 1b b3 3e e0 71 05 3f
       -0.47753742 -0.01098746 0.34982124 0.52126884
000180 8e 99 a7 be b3 a7 45 bc 7b d6 ad 3e ab 8f e1 be
       -0.3273434 -0.012063908 0.33952698 -0.44054922
000190 9a 31 cb 3e a7 a2 48 be 06 8d 1b 3b 98 c7 06 3d
       0.3968628 -0.19593297 0.002373518 0.03290519
0001a0 ae d6 0f 3f 97 6f 4d 3d ba 02 2a 3d d3 7d b5 be
       0.5618695 0.05015525 0.041506507 -0.3544756
0001b0 b2 91 fa 3d 6a 4a 91 3d 25 05 52 3f 6d c0 9f bd
       0.122348204 0.070942715 0.820391 -0.07800374
0001c0 00 0f a3 be 37 5b 03 be bb 71 38 bd 74 99 d4 be
       -0.31847382 -0.12827764 -0.045030337 -0.41523325
0001d0 49 b2 78 bd 82 6e b3 3e 82 aa 01 bd a8 02 e3 be
       -0.0607169 0.35045248 -0.03165675 -0.44337964
0001e0 71 6e c5 be 8d 01 92 3e e1 f3 e0 be bd a8 5c 3e
       -0.38560823 0.28516808 -0.43936065 0.21548744
0001f0 cd 65 3a be 83 cd 8b be 96 b6 78 be b1 02 9b be
       -0.18202896 -0.2730523 -0.24288401 -0.3027549
000200 cd d2 1d 3f b9 89 c2 3e 50 74 0b bf 26 1a 9c 3d
       0.6164978 0.379957 -0.54474354 0.07622175
000210 aa 04 de bc 69 29 e5 bd 76 4e 5a bd ca 9e 11 bf
       -0.027101833 -0.11189539 -0.053297482 -0.5688292
000220 f0 3b 5b 3e c2 e5 0a 3e ca 9e 7d 3d f8 42 32 be
       0.21409583 0.13564208 0.06191901 -0.17408359
000230 3f 05 12 3f 33 4b 85 be 24 8d d8 3e a9 22 1e be
       0.57039255 -0.26033935 0.42295182 -0.1544291
000240 50 e1 1b bd 11 8a cd 3e 49 bf c7 be 51 72 04 bc
       -0.03805667 0.401444 -0.39013126 -0.008083896
000250 02 82 2b be d4 c6 c2 be 25 39 34 3d c0 7a af bd
       -0.16748813 -0.3804232 0.04399981 -0.085683346
000260 24 b7 46 3d 2d b5 ac ba bb 7d 47 be 95 50 32 bf
       0.0485145 -0.0013176553 -0.19481556 -0.6965421
000270 09 7f 29 3e 8f f2 1d be dc 47 db 3d 77 4b 26 3f
       0.16552366 -0.1542456 0.107070655 0.649589
000280 a7 a1 38 be e0 6b a2 be 90 df c1 bc 01 ff 99 bc
       -0.18030415 -0.31722927 -0.023666173 -0.018798353
000290 a2 8e dd 3d 3d bf 18 bf 2c 64 54 bc 15 27 04 3f
       0.10818221 -0.59666806 -0.012963336 0.51622134
0002a0 c6 f0 7f bd 6a 6b d4 3d aa ea eb 3e 55 3e c8 3e
       -0.06248548 0.1037205 0.46077472 0.39110056
0002b0 ad cd ea be da 47 85 be d6 73 47 be 97 89 9d be
       -0.45860043 -0.2603138 -0.19477782 -0.30769035
0002c0 75 5b a8 3e 17 ad c6 bc 23 9b cd be cb 25 6a be
       0.32882276 -0.024252458 -0.40157422 -0.2286598
0002d0 a1 38 dc 3d 09 dd df bd 9b ce 1a 3f 62 99 1b be
       0.107529886 -0.10930831 0.60471505 -0.1519523
0002e0 99 56 02 bf cf 47 1f 3f a3 d9 b0 bb 01 4a b8 be
       -0.5091339 0.62218946 -0.005397038 -0.3599396
0002f0 d8 16 03 be 84 03 c6 3d 83 9f 8f 3e 86 55 86 be
       -0.12801683 0.09668639 0.28051385 -0.26237124
000300 07 25 17 bf 8f 82 de bd 23 91 8e 3e 93 91 94 3d
       -0.59040874 -0.10864746 0.27845106 0.072543286
000310 eb e2 5c be bb c5 18 3f bd 55 09 bf 83 8d e3 3e
       -0.21570937 0.5967671 -0.5364645 0.44443902
000320 40 f1 0c 3e c3 6d 2b be e5 6a 93 be fa 29 0d 3f
       0.13763905 -0.1674109 -0.28792492 0.55142176
000330 4c 97 70 be 34 d7 08 3f d1 a1 12 3e 9a 5b c1 be
       -0.23495215 0.53453374 0.1431954 -0.377652
000340 e8 db 08 3d 48 9b ab 3d 38 dc 92 be eb 87 b5 be
       0.033412844 0.08379227 -0.2868364 -0.3545526
000350 51 b6 8d be fb a7 93 bc 71 5b 01 3e a7 a5 0b 3e
       -0.2767816 -0.018024435 0.12632538 0.1363741
000360 28 4e 97 3e bc b0 9d 3e 25 d0 43 3e 8e 93 af 3e
       0.29551816 0.307989 0.1912237 0.34292263
000370 4b 97 1b bd 1b 8e ad bd 6d 78 56 be 82 b5 d6 bd
       -0.03798608 -0.0847437 -0.20944376 -0.104838386
000380 ea 01 ca 3e 7f 36 78 3e f7 e0 4a 3e 2a c3 f0 3e
       0.39454585 0.24239539 0.1981238 0.47023898
000390 18 95 56 3e 01 df 11 bf d4 64 de 3e 1a 95 29 3e
       0.20955312 -0.569809 0.434363 0.16560784
0003a0 12 14 1a 3d d5 ea 25 3e 16 cb f1 be 9b db fb bc
       0.037616797 0.16202863 -0.47225255 -0.030744364
0003b0 1d 52 11 bf 79 54 4f bc bc 11 26 bb da 98 e3 bd
       -0.5676592 -0.012654417 -0.002534016 -0.111131385
0003c0 e6 ff 04 3f 98 da 61 bd 10 ca ee 3e fb 9f 57 3e
       0.5195297 -0.055140108 0.46638536 0.21057121
0003d0 05 46 c6 be 43 b2 07 bf ff 3c a6 3b 3a 8f 96 3e
       -0.38725296 -0.5300638 0.0050731893 0.29406148
0003e0 4a 80 2a 3f b0 38 f0 be
       0.66602004 -0.4691825

fc_2.bias f4 [10]
000000 ff 14 29 3e 65 5f 06 3d 55 73 3e 3c 26 6f 8c bc
       0.16511916 0.03280582 0.011624177 -0.017142843
000010 ef ae 0f be 46 5d 8c bd 08 72 6e 3d 87 65 ba 3c
       -0.14031576 -0.06853728 0.058214217 0.02275349
000020 53 1b 71 3d 9e e7 34 3e
       0.05886395 0.1766648
