nn_params.pth (torch, 81504 bytes, 4 tensors)

fc_1.weight f4 [25, 784]
0	0xbcb84b1c	-0.022496752
1	0x3d0eae04	0.034833923
2	0x3c1c1afc	0.009527918
3	0x3c37ab17	0.011210225
4	0xbc59478e	-0.013261689
5	0x3c392a97	0.011301658
6	0xbaf36093	-0.001856821
7	0xbc4f1e85	-0.012641554
8	0x3d074932	0.03302879
9	0x39305b6e	0.00016818728
10	0x3beffa9c	0.007323576
11	0x3c1938a0	0.009351879
12	0xbca2b4f3	-0.019861674
13	0xbd06a46e	-0.032871656
14	0xbd11e001	-0.035614017
15	0x3ce8993e	0.028393384
16	0xbcc765c1	-0.024340512
17	0x3bd37393	0.0064529865
18	0x3c3d2fdc	0.011547055
19	0xbcd2556c	-0.025675498
20	0x3ca636c3	0.020289784
21	0x3b791893	0.0038009032
22	0x3ceec02e	0.029144373
23	0xbca9891c	-0.020695262
24	0xbc98458a	-0.018587846
25	0xbc6b1a2a	-0.0143495
26	0x3b9ed0d3	0.004846671
27	0xbbed57e5	-0.007243144
28	0xbc0ebe2e	-0.008712335
29	0x3cec1fa5	0.028823683
30	0xbce054b3	-0.027384138
31	0xbccfef0c	-0.025382541
32	0x3c45d215	0.012074013
33	0xbcb334b3	-0.021875715
34	0xbca3c5f3	-0.01999185
35	0x3c0ebd81	0.008712173
36	0xbcd3ed77	-0.025870068
37	0xbb8f6baf	-0.0043768506
38	0x3c9dd3b9	0.019265996
39	0xbc821bf3	-0.015882468
40	0x3cba1b8d	0.022718215
41	0x3cd876dd	0.026423866
42	0xbbe57825	-0.0070028477
43	0xbc0e68a3	-0.0086919395
44	0x3c68bd25	0.014205252
45	0xbcd55b6e	-0.026044574
46	0xbaedf74f	-0.0018155369
47	0xbce4f38e	-0.027948167
48	0x3c2934cd	0.01032753
49	0xbce0383b	-0.027370563
50	0x3bf5799e	0.0074913045
51	0x3c0abdfb	0.008468146
52	0xbd0958ba	-0.033531882
53	0xbb649d93	-0.003488396
54	0x3cd036ec	0.025416814
55	0xbcfb995a	-0.030712772
56	0xbce2ad3c	-0.027670495
57	0x3c91933a	0.017770398
58	0x3c672369	0.0141075635
59	0xbce97e63	-0.028502649
60	0x3ced0093	0.028930938
61	0xbcdfed8d	-0.027334953
62	0x3c58b0c3	0.013225737
63	0xbbc8ed99	-0.0061318395
64	0xbd1545f1	-0.036443654
65	0x3cff2a7f	0.031148193
66	0xbd2a19ad	-0.041528393
67	0x3c4c6c5e	0.012477009
68	0xbc72568f	-0.014791145
69	0xbd6170ff	-0.055039402
70	0xbbb7096b	-0.0055858395
71	0xbd1cd428	-0.038288265
72	0xbca8fc73	-0.02062819
73	0xbd5a7085	-0.053329963
74	0x3bc46bca	0.005994295
75	0xbd1e9530	-0.038716495
76	0xbd06cb56	-0.03290876
77	0xbcbc2a76	-0.022969466
78	0xbca530af	-0.020164816
79	0xbc990563	-0.018679326
80	0xbc184a97	-0.009295127
81	0xbbfc1b82	-0.007693709
82	0xbcf2204c	-0.029556416
83	0xb941fdb7	-0.0001850043
84	0x3c06b137	0.008220962
85	0xbc1bb7e5	-0.009504293
86	0x3cdb4626	0.026766848
87	0xbb978bbe	-0.004624813
88	0xbcc9c2c0	-0.024628997
89	0x3c4515c3	0.012029114
90	0xbc66b565	-0.014081334
91	0x3cb27441	0.02178395
92	0x3c01955d	0.007909146
93	0xbc42a334	-0.011879731
94	0xbd049a47	-0.032373693
95	0xbd1f9710	-0.038962424
96	0xbd75d106	-0.060013793
97	0x3c10a518	0.008828424
98	0xbd275a2e	-0.040857486
99	0xbaff8e2c	-0.0019497327
100	0xbd2eea5f	-0.042703982
101	0xbd0f0f91	-0.034926955
102	0xbdd3c9ff	-0.10341262
103	0xbdb9e4f5	-0.09076873
104	0xbdb9f109	-0.09079177
105	0xbc8f2d11	-0.017477544
106	0xbd5a172c	-0.053244755
107	0xbbb10b59	-0.005402964
108	0xbd0118cf	-0.0315178
109	0x3d1457cb	0.03621654
110	0x3ce2f9c2	0.027706984
111	0x3bb73177	0.0055906135
112	0xbc9b2730	-0.018939584
113	0xbaf8e1b6	-0.0018988166
114	0xbcd76572	-0.02629349
115	0x3bdc2d5a	0.0067192735
116	0x3cb05127	0.021523071
117	0xbca7af23	-0.020469254
118	0x3c679cde	0.014136521
119	0xbcb922c5	-0.022599587
120	0x3ca15a76	0.019696455
121	0x3d32efec	0.04368584
122	0xbc1d4714	-0.009599466
123	0xbb8f9e5f	-0.004382893
124	0x3d71aeee	0.059004717
125	0x3d859edd	0.065244414
126	0x3db8f5f0	0.09031284
127	0x3d949610	0.07255185
128	0x3d47cad2	0.04877741
129	0x3d9c6dce	0.07638131
130	0xbc9c9081	-0.019111874
131	0xbd1b2d2b	-0.037884872
132	0xbbd546ea	-0.0065086978
133	0xbd0ff918	-0.035149664
134	0xbd3336fc	-0.04375361
135	0xbd8a6c4b	-0.067589365
136	0xbbe9d90b	-0.0071364692
137	0x3d20769c	0.039175615
138	0xbd09d14f	-0.033646878
139	0xbcefb10d	-0.02925923
140	0x3d0007d6	0.031257473
141	0xb8ac3493	-8.211392e-05
142	0xbcb96abd	-0.022633905
143	0x3c486ed2	0.012233453
144	0x3b5fbb62	0.0034138788
145	0xbd6a878e	-0.05725818
146	0xbd52e0aa	-0.051483788
147	0xbd0b6db4	-0.034040168
148	0xbd72f590	-0.059316218
149	0xbc7b82d9	-0.015351021
150	0xbc003d7f	-0.007827162
151	0x3d89cf58	0.06729001
152	0x3d0c9785	0.034324188
153	0x3cc33ac9	0.023831742
154	0x3d26ebb2	0.04075212
155	0x3d89cc75	0.0672845
156	0x3db4a1d5	0.088199295
157	0x3dc1b29a	0.09457894
158	0x3d2528fc	0.04032229
159	0x3c1d59a2	0.00960389
160	0x3c3412b9	0.010990792
161	0x3d26ad86	0.04069283
162	0xbb5ff5b7	-0.0034173557
163	0xbbbd0a91	-0.005769082
164	0x3bd066c4	0.006359907
165	0xbc0e2bb0	-0.008677408
166	0xbc025b27	-0.007956303
167	0x3b19f425	0.0023491469
168	0x3d06e4ac	0.032932922
169	0x3cd2a76f	0.025714604
170	0x3c6424d4	0.013924796
171	0x3c1865ca	0.009301612
172	0xbc1f9474	-0.009739984
173	0xbd3fdeb2	-0.04684324
174	0xbdb05935	-0.08610765
175	0xbc976405	-0.01848031
176	0x3babcca6	0.005242902
177	0x3d26a33b	0.040683012
178	0xbd14145a	-0.03615222
179	0x3ab4ac1d	0.0013784204
180	0xbac84f37	-0.0015282397
181	0xbdafdb7b	-0.085867845
182	0xbdae329b	-0.08505746
183	0xbd914683	-0.07093527
184	0xbd5c7f74	-0.053832486
185	0xbd4e5b88	-0.05038026
186	0xbd46d1ba	-0.048539855
187	0x3cada85d	0.021198446
188	0xbc6aaad9	-0.01432296
189	0xbcf3d512	-0.029764686
190	0x3bd23738	0.006415274
191	0x3d25dba9	0.040492687
192	0xbc3ec2fe	-0.011643169
193	0xbcbdf620	-0.02318865
194	0xbca25838	-0.019817457
195	0xbc09839e	-0.008393196
196	0x3ce34dca	0.027747054
197	0x3cba9d01	0.022779943
198	0xbd0a986c	-0.033836767
199	0x3c8a7544	0.01690162
200	0xbcb2a0ca	-0.021805186
201	0xbd303cc3	-0.043026697
202	0xbd35e104	-0.044404045
203	0x3bc16064	0.0059013832
204	0x3d000dac	0.03126304
205	0x3d61072e	0.054938488
206	0x3d6733a0	0.056445718
207	0xbd130ec8	-0.03590277
208	0xbda26a89	-0.07930476
209	0xbe17cd2f	-0.14824365
210	0xbe64272a	-0.22280565
211	0xbe1365ee	-0.14394352
212	0xbdffbff5	-0.12487785
213	0xbdf889e3	-0.12135675
214	0xbdb37fa6	-0.087645814
215	0xbd87e684	-0.06635764
216	0xbd2f075d	-0.04273163
217	0x3d06a52d	0.032872368
218	0x3e0cbbea	0.13743559
219	0x3ca6e761	0.020374002
220	0x3d52833b	0.051394682
221	0x3c3d412d	0.011551184
222	0x3b8fdc7c	0.0043902975
223	0x3ba9b303	0.0051788106
224	0xbc585fc6	-0.013206428
225	0x3ca30a0a	0.019902248
226	0x3c88a40a	0.016679782
227	0xbb2622bb	-0.002535029
228	0xbd51dbe0	-0.05123508
229	0xbd2e9227	-0.04261985
230	0x3ba0bd18	0.004905354
231	0x3cb7e88f	0.02244976
232	0xbcbb3a45	-0.022854934
233	0x3dafe411	0.08588422
234	0x3dde7242	0.10861637
235	0x3b753364	0.0037414664
236	0x3cdf758d	0.027277732
237	0xbc92cf0d	-0.017920995
238	0xbd2c0dbf	-0.042005297
239	0xbdc981c9	-0.09839208
240	0xbd88025b	-0.06641074
241	0xbd0f5eec	-0.035002634
242	0xbcb5d617	-0.022196813
243	0xbc9338ed	-0.01797148
244	0xbabcec18	-0.0014413623
245	0xbcbafae6	-0.022824716
246	0x3d8d2eb6	0.06893675
247	0x3d940366	0.07227211
248	0x3d8f0435	0.06983224
249	0x3ce045d9	0.027377056
250	0x3ce410ab	0.02783998
251	0x3c804581	0.015658142
252	0xbc9b59b0	-0.018963665
253	0xbc87c5c0	-0.016573787
254	0xbd11fb51	-0.035640065
255	0xbc82aff3	-0.01595304

fc_1.bias f4 [25]
0	0x3d54b90f	0.051934298
1	0xbd47f8d0	-0.04882127
2	0x3d768f12	0.060195036
3	0x3e5ac71d	0.21365018
4	0xbd60afe0	-0.054855227
5	0x3e139a1f	0.14414261
6	0x3e96abaf	0.2942786
7	0x3eb4e870	0.35333586
8	0xbeb36525	-0.35038105
9	0x3de90852	0.1137854
10	0xbe2115a9	-0.15730919
11	0x3dad31b6	0.08456747
12	0xbc92deb8	-0.017928466
13	0xbeff4cdf	-0.49863335
14	0xbe935cc7	-0.2878172
15	0x3e9c070d	0.3047413
16	0xbdba14ff	-0.09086036
17	0x3e896cac	0.26840723
18	0x3e3040b6	0.17212185
19	0xbd5f5544	-0.054524675
20	0x3e94b2ea	0.2904275
21	0x3e3b010d	0.1826212
22	0x3e480d37	0.19536291
23	0x3e2c4dc1	0.16826536
24	0x3e3514ae	0.1768367

fc_2.weight f4 [10, 25]
0	0xbf0062ef	-0.5015096
1	0xbef5b8ff	-0.47992703
2	0x3f2a7863	0.66589946
3	0xbedffe4f	-0.4374871
4	0x3eb85eb2	0.36009747
5	0xbe9da9a9	-0.30793503
6	0xbdfb686f	-0.122757785
7	0xbea48a40	-0.32136726
8	0x3eed7a55	0.46382394
9	0x3f40e947	0.7535595
10	0xbe433fee	-0.19067356
11	0xbecd9f50	-0.40160608
12	0x3d00b62b	0.03142373
13	0x3e8ee63b	0.27910027
14	0xbea331a5	-0.31873813
15	0x3ec3452e	0.38138717
16	0xbe933a52	-0.28755432
17	0xbec999fd	-0.39375296
18	0xbea376ac	-0.31926477
19	0xbf32cd3b	-0.69844407
20	0x3ef34413	0.47512874
21	0xbe66eb7b	-0.22550766
22	0xbf3698e5	-0.7132705
23	0xbf122bc1	-0.57098013
24	0x3f334080	0.70020294
25	0x3e90ef61	0.28307632
26	0x3e4c92ef	0.19977926
27	0xbf19c33b	-0.60063523
28	0xbef44cee	-0.47714943
29	0xbecdeb68	-0.40218663
30	0xbed9c931	-0.4253631
31	0x3f32e6cc	0.6988342
32	0xbdda641b	-0.10663625
33	0xbeb9b7d5	-0.36273065
34	0x3eb75215	0.3580481
35	0xbe781f87	-0.24230777
36	0xbebe51b7	-0.37171718
37	0xbdb51baf	-0.08843171
38	0xbf582740	-0.8443489
39	0x3ebbdca0	0.3669176
40	0xbecfd4fb	-0.4059218
41	0x3f681850	0.906621
42	0xbd909e34	-0.07061425
43	0x3e47819b	0.19483034
44	0x3f269aba	0.65079844
45	0x3f10133f	0.5627937
46	0x3e61fb16	0.22068438
47	0xbe2ad7ad	-0.16683836
48	0x3f03c459	0.5147148
49	0xbf58a7be	-0.84630954
50	0x3f499c2f	0.7875394
51	0x3ccc340f	0.024927167
52	0x3deef5bb	0.11667963
53	0xbed17f14	-0.40917265
54	0xbedd7f12	-0.4326101
55	0x3fa7f93a	1.3122933
56	0xbeccc093	-0.39990672
57	0xbf4d4a58	-0.80191565
58	0xbe2ec0b9	-0.17065705
59	0x3ec6f57e	0.3885917
60	0xbe1f439e	-0.15553138
61	0x3e8e790e	0.27826732
62	0x3f2aaa40	0.6666603
63	0x3f710346	0.9414562
64	0x3ddc0a4c	0.107441515
65	0xbd8c9ac1	-0.068654545
66	0x3e9c7c74	0.305637
67	0xbe8988bb	-0.2686213
68	0x3fadcf61	1.3578912
69	0x3ef858f9	0.4850538
70	0x3e6b209d	0.2296166
71	0xbf718273	-0.94339675
72	0xbed4b784	-0.4154626
73	0xbdc7f786	-0.09764008
74	0x3dc7c55d	0.09754441
75	0xbefca8c7	-0.49347517
76	0xbe974c67	-0.29550478
77	0xbf246bc9	-0.6422697
78	0xbf6116ab	-0.87925214
79	0xbea67c41	-0.32516673
80	0xbe9946aa	-0.29936725
81	0xbf14265d	-0.5787104
82	0x3f0f4394	0.5596249
83	0x3d339ffb	0.04385374
84	0xbe4211dc	-0.18952125
85	0xbc9fc3d3	-0.019502556
86	0x3ebd0139	0.36914995
87	0xbe9bd527	-0.3043606
88	0x3f29cef8	0.66331434
89	0x3f01dc54	0.5072682
90	0x3f48e190	0.7846918
91	0x3e00230d	0.12513371
92	0x3eb77306	0.35829943
93	0xbcebdb38	-0.028791055
94	0x3f12d9e5	0.5736373
95	0x3ef07027	0.46960565
96	0xbefdcdb9	-0.49571016
97	0x3e814bcb	0.25253138
98	0xbeeb6d0d	-0.45981637
99	0xbe75e97e	-0.24014851
100	0x3ddd8c9d	0.108178355
101	0xbf1f5d55	-0.6225179
102	0x3e03f850	0.12887692
103	0x3f311218	0.69168234
104	0xbccc4227	-0.024933888
105	0x3d6341b5	0.055482585
106	0xbef5a52f	-0.47977588
107	0x3d08fc9b	0.03344403
108	0xbef46fd9	-0.47741583
109	0xbf4181db	-0.7558877
110	0x3f33d6ee	0.7024983
111	0xbd8aab3f	-0.06770944
112	0x3f4ae233	0.792514
113	0xbf8c12b3	-1.0943207
114	0x3df6b77c	0.120467156
115	0xbe00285a	-0.12515393
116	0x3e5c9430	0.21540904
117	0x3e5f88f9	0.21829595
118	0xbeae0946	-0.3399145
119	0xbefe325d	-0.496478
120	0xbf826626	-1.0187423
121	0x3f104b5b	0.56364983
122	0x3f3c4f12	0.7355815
123	0x3e554c80	0.20829964
124	0x3e82ec28	0.25570798
125	0xbb933cc3	-0.0044933273
126	0x3db0ac7b	0.08626648
127	0x3ed332f3	0.4124981
128	0x3f0b61f9	0.5444637
129	0x3e91bab4	0.28462756
130	0xbe9d58f7	-0.30731937
131	0x3f473a6e	0.7782353
132	0xbd90b93a	-0.07066579
133	0xbf1d2cc7	-0.6139645
134	0xbeead3c7	-0.45864698
135	0xbf1da48c	-0.61579204
136	0xbf60410c	-0.87599254
137	0xbf065cc3	-0.52485293
138	0x3d5cef3d	0.053939093
139	0xbd844894	-0.06459156
140	0x3f3fd8a4	0.7493994
141	0xbf8e072e	-1.1095941
142	0x3f5962f4	0.84916615
143	0x3e810290	0.25197268
144	0x3d7b756f	0.06139129
145	0x3f9432e2	1.1578028
146	0x3eefe8ce	0.46857303
147	0x3e0ae05d	0.1356215
148	0x3ecc2cef	0.39878032
149	0xbe9f1070	-0.31067228
150	0xbe56e6cf	-0.20986484
151	0x3f336739	0.7007938
152	0x3e880971	0.26569703
153	0x3edfdf1a	0.437249
154	0xbe03cdd3	-0.12871484
155	0x3efde78f	0.49590728
156	0x3ea6e07c	0.32593143
157	0xbf853fe0	-1.0410118
158	0x3f32e524	0.6988089
159	0x3d11b5d8	0.03557381
160	0x3f1eb889	0.6200033
161	0xbdb1e5b4	-0.086863905
162	0xbd94777e	-0.07249354
163	0xbdfb9eb1	-0.12286127
164	0xbf37b934	-0.7176697
165	0x3f17856c	0.5918796
166	0x3f0acdbd	0.5422018
167	0xbf23ad6a	-0.63936484
168	0xbe8e85e7	-0.27836534
169	0xbec08b93	-0.37606487
170	0xbe694ceb	-0.22783248
171	0xbf18c631	-0.59677416
172	0x3eb2eaf0	0.34944868
173	0x3eee6261	0.46559432
174	0xbf201949	-0.6253858
175	0x3cd89b89	0.026441352
176	0xbe83b7cc	-0.25726163
177	0xbf337a00	-0.7010803
178	0xbd7d738b	-0.06187777
179	0xbdd80442	-0.10547687
180	0xbe57c538	-0.21071327
181	0xbd5b2e04	-0.05351068
182	0x3f62fbf2	0.8866569
183	0xbe16c817	-0.14724766
184	0x3f005728	0.5013299
185	0xbea1ee3b	-0.31627068
186	0x3f1749d6	0.5909704
187	0xbf4dbbed	-0.80364877
188	0xbdd08e87	-0.10183435
189	0xbf93aa91	-1.1536428
190	0xbe8e1342	-0.27749068
191	0x3cc142eb	0.02359148
192	0x3e14c590	0.14528489
193	0x3f1bb4af	0.60822576
194	0x3f72c314	0.94828916
195	0xbf4c62db	-0.7983834
196	0x3e8f8e3d	0.28038207
197	0x3eac6f64	0.33678734
198	0x3d9221c4	0.071353465
199	0x3f47ccd9	0.7804695
200	0x3e6440c4	0.22290331
201	0x3f34ffa0	0.7070255
202	0x3ebdbc8d	0.37057915
203	0x3e2c2aec	0.16813248
204	0x3f1fa66b	0.6236331
205	0xbf216599	-0.6304565
206	0xbf526d11	-0.8219767
207	0xbe27320d	-0.16327687
208	0x3e86f85c	0.26361358
209	0xbf257389	-0.6462942
210	0x3e5d6da4	0.21623856
211	0xbf20f422	-0.6287252
212	0xbf0b7a2a	-0.5448328
213	0x3f047f6e	0.5175694
214	0x3f55a6c7	0.8345761
215	0xbe814e00	-0.25254822
216	0xbc9e7967	-0.019344999
217	0xbf584ef2	-0.8449546
218	0x3e807098	0.25085902
219	0xbe56f037	-0.20990072
220	0xbf3fd39f	-0.74932283
221	0x3f15642d	0.5835598
222	0xbe4af335	-0.19819339
223	0x3e78ab15	0.24284013
224	0x3eb101c3	0.34571657
225	0xbeeee70d	-0.46660653
226	0x3ebd74b9	0.37003115
227	0x3d330cda	0.043713428
228	0x3eb0ebbc	0.3455485
229	0x3d8e3958	0.06944531
230	0xbe6bddf3	-0.23033886
231	0x3ec26844	0.37970173
232	0x3f655aaa	0.8959147
233	0x3ed61f60	0.41820812
234	0x3eb73072	0.35779148
235	0xbe4006ba	-0.18752566
236	0x3f4f1a76	0.8089975
237	0x3ec24520	0.37943363
238	0xbd9e21b9	-0.07721276
239	0x3e721535	0.23640902
240	0xbf8b3686	-1.0876014
241	0xbeee0524	-0.46488297
242	0x3e93327e	0.2874946
243	0xbf9a503b	-1.2055734
244	0xbfb1095c	-1.3830981
245	0xbf2fcf98	-0.6867614
246	0x3f02298d	0.5084465
247	0xbebbeda5	-0.36704746
248	0x3e540422	0.20704702
249	0xbe6ef168	-0.23334277

fc_2.bias f4 [10]
0	0xbe94ffd2	-0.29101425
1	0x3df2fff2	0.11865224
2	0xbe863b4e	-0.2621712
3	0x3d52fc24	0.05150999
4	0xbdfed02f	-0.124420516
5	0x3ec389ae	0.3819098
6	0xbe1c2dfb	-0.15251915
7	0x3cf96d19	0.03044753
8	0xbee2a396	-0.4426543
9	0x3caaa1f4	0.020829178
